…
  清单 2-15 使用 `itertools` 包，通过 AIC 寻找最佳超参数（参考清单 2-12）。Python 环境中预装了 `SciPy` 包。


  ```

  import scipy.stats as stats

  p = d = q = range(0,2)

  pdq = list(itertools.product(p,d,q))

  seasonal_pdq = [(x[0],x[1],x[2],12) for x in list(itertools.product(p,d,q))]

  for param in pdq:

  for param_seasonal in seasonal_pdq:

  try:

  model = sm.tsa.statespace.SARIMAX(train,

  order=param,

  seasonal_order=param_seasonal,

  enforce_stationarity=False,

  enforce_intervibility=False)

  results = model.fit()

  print("SARIMAX {} x {} 12 - AIC: {}".format(param,param_seasonal,results.aic))

  except:

  continue

  SARIMAX (1, 1, 1) x (0, 1, 1, 12) 12 - AIC: 3822.8419684760634

  SARIMAX (1, 1, 1) x (1, 0, 0, 12) 12 - AIC: 3795.147211266854

  SARIMAX (1, 1, 1) x (1, 0, 1, 12) 12 - AIC: 3795.0731989219726

  SARIMAX (1, 1, 1) x (1, 1, 0, 12) 12 - AIC: 4580.905706671067

  SARIMAX (1, 1, 1) x (1, 1, 1, 12) 12 - AIC: 3824.843959188799

  清单 2-15

  SARIMA 超参数优化

  ```


  请注意，我们只展示了最后五个输出。前面的代码从 `SARIMAX(0, 0, 0) × (0, 0, 0, 12) 12` 到 `SARIMAX(1, 1, 1)
  × (1, 1, 1, 12) 12` 评估了 AIC。我们发现 `SARIMAX(1, 1, 1) × (1, 1, 1, 12) 12` 的 AIC 评分最低。清单
  2-16 使用 `order = (1,1,1)` 完成了 SARIMA 模型。


  ### 开发 SARIMA 模型


  清单 2-16 在不强制要求平稳性和可逆性的情况下完成了 SARIMA 模型，并构建了一个包含模型性能信息的表格（见表 2-4）。


  **表 2-4** SARIMA 概况


  | 因变量: | `Y` | 观测数量: | 2085 |

  | --- | --- | --- | --- |

  | **模型:** | SARIMAX(1, 1, 1) | **对数似然** | -1901.217 |

  | **日期:** | 2020 年 11 月 14 日 周六 | **AIC** | 3808.435 |

  | **时间:** | 02:01:47 | **BIC** | 3825.361 |

  | **样本:** | 0 | **HQIC** | 3814.637 |
…
