…
    Now we instantiate a neural network model in `nn_model` and inspect the architectural
    information of the model using the `summary()` function, as shown in Listing [10-9](#605529_1_En_10_Chapter.xhtml#PC13).


    ```

    from torchsummary import summary

    # Create an instance of the neural network model

    nn_model = Net()

    # print the summary of the customized neural network

    >>> summary(nn_model, input_size=(1, train_X.shape[1]))


    Layer (type)               Output Shape         Param #

    ================================================================

    Linear-1                [-1, 1, 64]             384

    ReLU-2                [-1, 1, 64]               0

    Linear-3                [-1, 1, 32]           2,080

    ReLU-4                [-1, 1, 32]               0

    Linear-5                 [-1, 1, 1]              33

    ================================================================

    Total params: 2,497

    Trainable params: 2,497

    Non-trainable params: 0


    Input size (MB): 0.00

    Forward/backward pass size (MB): 0.00

    Params size (MB): 0.01

    Estimated Total Size (MB): 0.01


    Listing 10-9

    Checking network model summary

    ```


    The result shows that the neural network contains a total of 2497 parameters over
…
